app/src/main/ml/model.tflite (tflite, 22672 bytes, 11 tensors)

sequential/dense_1/MatMul;sequential/dense_1/BiasAdd f4 [7]
000000 0b 82 46 40 d3 c4 4c 40 9d b2 65 40 d8 f8 72 40
       3.1016872 3.1995132 3.5890267 3.7964382
000010 f9 c0 71 40 d4 c8 69 40 a4 f1 7a 40
       3.777403 3.6528826 3.9209986

sequential/lstm/Read_2/ReadVariableOp f4 [40]
000000 d0 3d 25 bf 75 92 99 bf 6a 1c 63 bf 4b ed df 3e
       -0.64547443 -1.199782 -0.8871523 0.43735728
000010 b3 b4 a4 3f 22 98 10 3f fe dc b9 bf 72 71 26 bf
       1.2867645 0.56482136 -1.4520566 -0.65016854
000020 a0 b1 ac bf e2 4a 63 bf 00 00 80 3f 00 00 80 3f
       -1.3491707 -0.8878614 1.0 1.0
000030 00 00 80 3f 00 00 80 3f 00 00 80 3f 00 00 80 3f
       1.0 1.0 1.0 1.0
000040 00 00 80 3f 00 00 80 3f 00 00 80 3f 00 00 80 3f
       1.0 1.0 1.0 1.0
000050 78 6b 47 3e ae df 0d bf 89 5b 1c 3f a9 7c 55 bf
       0.1947459 -0.55419433 0.6107717 -0.8339334
000060 3d 58 9a bf a1 f5 cb 3e 36 2f 85 bf 6e 7f 4f 3f
       -1.2058178 0.39835837 -1.0405033 0.8105382
000070 39 16 97 3f 9e bb 02 3e da 43 d4 be 96 dc bc bf
       1.1803657 0.12766883 -0.41458017 -1.4754817
000080 8f 5f 46 bf 1c 25 bb be 90 30 95 bd 4f 97 91 be
       -0.7748956 -0.3655175 -0.07284653 -0.28435752
000090 39 3f b7 be ab 84 74 bf 59 e7 7b bf 08 3b 9b bf
       -0.35790423 -0.95514935 -0.98399884 -1.212739

sequential/lstm_1/Read_2/ReadVariableOp f4 [40]
000000 4d e9 e9 3e af 5c db 3e c6 d9 de 3d be 9c 56 3e
       0.45685807 0.4284415 0.10881381 0.2095823
000010 a1 a0 bd bd 8e 23 96 3e b2 35 b7 3e 1c b7 df 3e
       -0.09259153 0.29324 0.35783154 0.4369439
000020 14 5b bd 3e 67 7b 8b bc 00 00 80 3f 00 00 80 3f
       0.3698355 -0.017026616 1.0 1.0
000030 00 00 80 3f 00 00 80 3f 00 00 80 3f 00 00 80 3f
       1.0 1.0 1.0 1.0
000040 00 00 80 3f 00 00 80 3f 00 00 80 3f 00 00 80 3f
       1.0 1.0 1.0 1.0
000050 92 3c 09 bf 12 16 c2 be 54 0b 9b 3d 16 c9 16 3e
       -0.5360805 -0.37907463 0.0757052 0.14725146
000060 fb e6 83 bd d2 61 3a 3e b9 c1 95 be 79 cb f9 be
       -0.064405404 0.18201378 -0.2924936 -0.4878805
000070 dd 8b c2 be e8 08 14 3d 14 0f f4 3e f0 47 e1 3e
       -0.37997332 0.036141306 0.47667754 0.44000196
000080 4b 33 cc 3e b5 df 66 3e 1b 97 83 3d 4e 07 9c 3e
       0.39882883 0.22546275 0.064253055 0.30474323
000090 44 11 c7 3e e7 e7 f5 3e 11 bb ba 3e 77 e6 13 3e
       0.3888036 0.4802849 0.36470845 0.14443384

sequential/dense/MatMul1 f4 [10, 10]
000000 b9 c9 46 bf 85 45 a2 be 79 e5 53 3f e4 b3 af 3e
       -0.77651554 -0.31693664 0.8277202 0.34316933
000010 c0 6d 67 3f f4 de b9 3e c3 67 91 bf 74 df 15 be
       0.9040184 0.36302912 -1.135979 -0.14636022
000020 31 ad 6a bf 57 ea 83 bf 1c d6 52 3f f4 a4 98 3f
       -0.9167052 -1.030589 0.82357955 1.192534
000030 09 fb 51 bf 09 b9 14 bf 78 8d 7b bf 3f 19 3a bf
       -0.82023674 -0.5809484 -0.9826274 -0.7269477
000040 17 f6 a1 3e 61 42 33 3f 5e 29 57 3f 7a 84 9e 3f
       0.31633064 0.7002316 0.84047496 1.2384179
000050 c9 71 de bc 66 ef 09 bf 3b 82 86 3f a9 a0 95 3d
       -0.027153866 -0.5388092 1.0508493 0.07306034
000060 38 f0 77 3f 18 cd 97 3f c9 95 71 bf 9a 20 81 bf
       0.9685092 1.1859465 -0.9436918 -1.0088074
000070 3c 0a 41 bf 32 5d 9e bf 82 79 31 3f 15 87 71 3e
       -0.7540624 -1.2372191 0.6932603 0.23586686
000080 b6 a2 2a 3e 80 93 6c bf af 1b c4 bf fe 8c 12 bd
       0.16663632 -0.9241257 -1.5320948 -0.035778992
000090 80 f5 23 3f 8b e2 84 3f 5a ab 6f 3e f5 ef c5 3e
       0.6404648 1.0381635 0.23405209 0.38659635
0000a0 07 3b 05 3f 25 e3 87 3f 2a 64 9f bf 32 e4 b2 be
       0.52043194 1.0616194 -1.2452443 -0.34939724
0000b0 8f 03 c0 be 3a af 75 bf 42 82 7c 3f 4a 66 fa 3e
       -0.37502715 -0.959705 0.9863626 0.48906165
0000c0 de f4 e6 3e 6d c9 28 3f 7b 4e 85 bf 32 8b 92 bf
       0.45108694 0.6593235 -1.0414575 -1.1448729
0000d0 a6 25 b0 3e 44 f7 87 3f 5f a5 87 3f c3 c4 5e 3f
       0.34403723 1.0622334 1.0597342 0.87018985
0000e0 35 67 11 bf 0a f4 14 bf 04 44 24 bf 8f 97 2b bf
       -0.56798106 -0.58184874 -0.64166284 -0.67028135
0000f0 66 30 2b 3f 34 b2 cd 3d 42 25 21 bf 8e e1 69 bf
       0.66870725 0.10043755 -0.62947476 -0.91359794
000100 44 84 0a bf 22 54 9f bd 07 8a 72 3f 4c 60 00 3f
       -0.5410807 -0.07779719 0.94741863 0.5014694
000110 3c 19 65 3f ad 14 1a 3f 9a 8d 84 bf d2 78 3f bf
       0.8949163 0.601878 -1.0355713 -0.7479373
000120 95 19 5d 3f 72 5a 8f 3f cd d1 77 3f 03 f5 0f 3f
       0.8636716 1.1199477 0.96804506 0.56233233
000130 69 42 7b bd be 51 3a bf 85 44 92 bf 0e 34 55 bf
       -0.06134263 -0.7278098 -1.142716 -0.83282554
000140 03 e0 2c 3f 5d 46 82 3f d2 54 fc be c1 fe 73 bf
       0.67529315 1.0177723 -0.49283463 -0.953106
000150 24 41 99 bf af af 59 bf 99 7a 6d 3f fb 35 b2 3c
       -1.1973004 -0.85033697 0.92765194 0.021754256
000160 5f ff 60 3f f1 e0 b7 3e b3 27 5b bf 7d 7b 85 bf
       0.87889665 0.35913804 -0.8560745 -1.0428311
000170 fd 47 5d 3f 42 d8 3a 3e 76 05 7d 3f 04 7b 3d 3f
       0.8643797 0.18246558 0.9883646 0.7401583
000180 21 bd c3 be 8a 49 7c bf 6d bd dd be 24 d2 81 bf
       -0.3823023 -0.9854971 -0.43308583 -1.0142255

sequential/dense_1/MatMul f4 [7, 10]
000000 49 6f 74 3f f5 7f 3b bf 2b 86 6c 3f d0 0a 24 be
       0.9548231 -0.7324212 0.92392224 -0.1601975
000010 ff 04 88 bf 75 ae 83 3e 45 fd 73 bf 6e da 84 3f
       -1.0626525 0.25719038 -0.95308334 1.037916
000020 cc 3f 20 bf 2c 07 bd 3d a0 2d 3b 3f 95 e8 18 bf
       -0.62597346 0.092298836 0.73116493 -0.5972989
000030 d7 15 7b 3f db 94 c2 bc 96 50 1d bf 01 26 9a 3f
       0.980802 -0.02375262 -0.6145109 1.2042848
000040 f5 3f 4e bf 60 dd 23 3f 57 9e 87 be 2e 8b 36 3f
       -0.8056634 0.64009666 -0.2648799 0.7130612
000050 b5 ca 3e 3f 2a ba d0 be 7c 00 32 3f 05 43 47 bf
       0.74528056 -0.40767032 0.6953199 -0.7783664
000060 00 4b 87 bf 1c e4 16 3e 56 be 8e bf 28 d4 18 b9
       -1.0569763 0.14735454 -1.1151836 -0.00014574884
000070 be 72 5e bf a6 2d 8a 3f 60 d3 5b 3f f2 fc 67 be
       -0.8689383 1.0795181 0.8586941 -0.22655085
000080 7e 27 3a 3f 12 2e 88 bf b8 fe 67 bf bb 08 1e 3f
       0.7271651 -1.063906 -0.90623045 0.6173207
000090 c5 cd 2c bf 67 9d bd 3d 80 c2 87 bf 0b 00 12 3f
       -0.6750148 0.09258538 -1.0606232 0.57031316
0000a0 d7 64 5d 3f 1b 6f 7b bf 63 bf 2c 3e b9 c7 aa be
       0.86481994 -0.9821641 0.16869883 -0.333555
0000b0 19 d7 f2 3d 9b db 04 3f 7b 6a 85 bf 34 f2 50 3f
       0.11857433 0.5189759 -1.042312 0.8161957
0000c0 1d ba 5b bf 54 a0 8a 3f d4 e0 20 3e d3 09 46 bf
       -0.8583086 1.0830178 0.15710765 -0.7735874
0000d0 a0 13 c0 3e 77 08 8d bf 93 6b 34 bf 49 67 12 3f
       0.37514973 -1.1018208 -0.70476645 0.5718885
0000e0 ff 53 0a bf 0a 78 68 3e 8e 5a 87 bf 65 24 8c 3f
       -0.5403442 0.22702041 -1.057451 1.0948607
0000f0 51 8f 59 3e fa 3b d9 be ce 6a 47 3f 7c 01 a8 bf
       0.21246077 -0.4242857 0.77897346 -1.3125453
000100 14 da 18 39 08 20 8b 3f 8f 16 48 bf 48 07 8f 3f
       0.0001457709 1.086915 -0.7815942 1.1174097
000110 be 1f 1e be 65 54 2c 3f
       -0.15441796 0.67316276

sequential/lstm/Read_2/ReadVariableOp1 f4 [40]
000000 d0 3d 25 bf 75 92 99 bf 6a 1c 63 bf 4b ed df 3e
       -0.64547443 -1.199782 -0.8871523 0.43735728
000010 b3 b4 a4 3f 22 98 10 3f fe dc b9 bf 72 71 26 bf
       1.2867645 0.56482136 -1.4520566 -0.65016854
000020 a0 b1 ac bf e2 4a 63 bf 00 00 80 3f 00 00 80 3f
       -1.3491707 -0.8878614 1.0 1.0
000030 00 00 80 3f 00 00 80 3f 00 00 80 3f 00 00 80 3f
       1.0 1.0 1.0 1.0
000040 00 00 80 3f 00 00 80 3f 00 00 80 3f 00 00 80 3f
       1.0 1.0 1.0 1.0
000050 78 6b 47 3e ae df 0d bf 89 5b 1c 3f a9 7c 55 bf
       0.1947459 -0.55419433 0.6107717 -0.8339334
000060 3d 58 9a bf a1 f5 cb 3e 36 2f 85 bf 6e 7f 4f 3f
       -1.2058178 0.39835837 -1.0405033 0.8105382
000070 39 16 97 3f 9e bb 02 3e da 43 d4 be 96 dc bc bf
       1.1803657 0.12766883 -0.41458017 -1.4754817
000080 8f 5f 46 bf 1c 25 bb be 90 30 95 bd 4f 97 91 be
       -0.7748956 -0.3655175 -0.07284653 -0.28435752
000090 39 3f b7 be ab 84 74 bf 59 e7 7b bf 08 3b 9b bf
       -0.35790423 -0.95514935 -0.98399884 -1.212739

while/MatMul_1 f4 [40, 10]
000000 70 c9 0b 3e 69 03 4c bd ec b7 cb bd bc 1f b4 be
       0.13651061 -0.04980794 -0.0994719 -0.3518046
000010 6e a7 4d be c9 38 82 3e 24 6c 8c bd 34 79 b2 bd
       -0.200834 0.2543395 -0.06856564 -0.08714524
000020 f6 cf 92 3e f0 bf 2c be 3a d9 83 3d 22 ce 30 3b
       0.28674287 -0.16870093 0.06437917 0.0026978333
000030 d8 4d 89 bd c2 b3 e9 bd b4 82 a1 3d 23 c9 15 3e
       -0.06704301 -0.11411239 0.07886258 0.14627509
000040 b0 f8 eb be 1f c0 75 3e 69 60 cb 3d 08 9b a8 3e
       -0.4608817 0.2399907 0.09930498 0.3293078
000050 9c 75 ce be 9d e8 d7 3d 35 68 05 3e f0 b4 46 3d
       -0.40324104 0.10542414 0.13028033 0.0485124
000060 87 82 ef bd 2a 13 08 3e 54 7a dc bd 86 3a 87 3d
       -0.11694818 0.1328856 -0.1076552 0.06602959
000070 ac fe 9d bd ae 16 45 3e 2f cb 5d 3e 43 b0 62 3e
       -0.077145904 0.19246933 0.2165954 0.22137551
000080 22 0c cd bd 2a f8 17 3d 9a 7f 11 3d 58 f3 b3 bb
       -0.1001208 0.037101902 0.03552208 -0.0054916553
000090 14 ba 35 be 40 36 e3 39 64 8f 30 be aa 47 9a bc
       -0.17746764 0.00043337233 -0.17242199 -0.018833
0000a0 3b 73 c4 bd ed c3 b6 bd da ec 5f 3e 7b 4e 03 3e
       -0.09592291 -0.089240886 0.21867695 0.12822907
0000b0 54 14 62 be 30 2f f8 3b db cf c7 bc 97 ba c6 3d
       -0.22078067 0.0075739846 -0.024391105 0.09703558
0000c0 90 6d de bb 0d ed b4 be b9 79 ea bd b7 2c 84 3d
       -0.006787963 -0.35337105 -0.11448998 0.06453841
0000d0 80 dd 60 39 e1 4c 45 3e 4e 9c 2e be 54 3a 1f be
       0.0002144482 0.19267608 -0.17051813 -0.15549594
0000e0 ba a3 dd 3d 7f ec 81 3d 3b 3a f9 bd 6d 53 83 3c
       0.10822244 0.06343936 -0.1216931 0.016030991
0000f0 8c 4c 94 be 1d 69 a0 bd e3 1f 27 be 90 7f 4f bc
       -0.2896465 -0.07832549 -0.16320758 -0.012664691
000100 42 bd 09 3e 62 60 31 3d ea 0f 0c 3e 82 11 8e be
       0.13451102 0.04330481 0.13677946 -0.27747732
000110 50 bd 3b 3e 9b 1e 70 3e 09 43 b1 bc e3 b5 40 3d
       0.18333936 0.23449175 -0.02163841 0.04704846
000120 fc 7a f4 bd b0 db bc 3d b6 d9 ca bd 18 e1 5d 3e
       -0.1193752 0.092215896 -0.09904806 0.21667898
000130 1b 38 e4 bd d4 bb a6 3c 03 12 aa 3d 0a a4 0e be
       -0.11143514 0.020353235 0.08304217 -0.13929763
000140 14 c5 84 bd 41 d5 e7 3d 46 69 e5 3d 7e e3 fe bd
       -0.06482902 0.11319972 0.1120172 -0.124457344
000150 18 48 86 3b bb a3 04 3c 57 af d8 3c fb 4e 84 3d
       0.0040979497 0.008095677 0.026450796 0.06460377
000160 3e a6 90 be e4 c1 4c be b5 4b 6d be 84 29 9f 3d
       -0.28251833 -0.19995838 -0.23173411 0.0777159
000170 f7 8e 8a 3d 98 ea a4 be 0d 8c 0c be 8c 89 32 3d
       0.0676555 -0.3221023 -0.137253 0.043588206
000180 79 04 d4 3d f7 8e a1 be bc c7 54 3d 72 29 12 3d
       0.103524156 -0.31554386 0.051948294 0.035684057
000190 bd 4d 2a be d3 0f b3 3d a4 eb bf be 8e 4e 18 3d
       -0.16631217 0.087432526 -0.37484467 0.03718429
0001a0 20 71 fa bd b8 41 a2 bb ec 4c fb bd 65 2e 48 3e
       -0.12228608 -0.004951682 -0.12270531 0.19548948
0001b0 ba b5 9e 3d aa f5 5f bd ee d3 d8 bd b9 87 20 3d
       0.07749505 -0.054677643 -0.105872974 0.039191935
0001c0 cf db 0e 3e a4 42 18 3c 24 9e 1e 3d 26 ef 25 be
       0.13951038 0.009293232 0.038725033 -0.16204509
0001d0 5b 45 1d be 2a 68 67 bd 1b 6e a6 3e 84 2c 00 3b
       -0.15358488 -0.056495823 0.3250588 0.0019557783
0001e0 ba da 6c 3e 82 77 7e be d9 bc 40 3e 7b 0e 34 be
       0.23130313 -0.24850276 0.1882204 -0.17583649
0001f0 3d 71 66 be 4c 20 1f 3d b3 0b f8 bd ba 2f 11 bd
       -0.22504134 0.03884916 -0.121116064 -0.035445906
000200 dd 47 04 be d8 c4 73 3e 95 23 e9 bd b6 ee ba be
       -0.12918039 0.23805559 -0.1138374 -0.36510247
000210 9b 9e 9b bd 02 76 60 be 4e 4b 13 3d 9a f7 1b bc
       -0.07598611 -0.21920016 0.035960488 -0.009519482
000220 16 7f 05 3d 10 73 f4 3d e8 cc e6 bd 29 2d be bd
       0.0325919 0.11936009 -0.112695515 -0.09285957
000230 5e 49 0d be 92 05 3f 3e 7a 55 30 be a9 93 0a 3e
       -0.13797519 0.18654469 -0.17220107 0.1353289
000240 87 71 1d 3d 1f 56 98 bd 97 6a 89 bd dd 35 22 3c
       0.038438346 -0.07438301 -0.067097835 0.009900537
000250 ce f9 e7 bd 5f 9c 8d 3d 7b fd e9 bd 31 12 0c 3d
       -0.11326943 0.06914591 -0.11425301 0.034197036
000260 ed cd 31 3e 38 f8 1d 3e ce 60 dc 3b b0 38 21 3c
       0.1736371 0.15426719 0.006725407 0.0098401755
000270 36 a6 38 3e fb ea 7d bd b6 56 17 be a6 d4 1e 3e
       0.18032154 -0.061991673 -0.14779171 0.15510806
000280 fd c8 05 3e e8 28 01 3e fb 8b 13 3e 41 9b 02 be
       0.13064952 0.12613261 0.14408867 -0.12754537
000290 70 52 e2 bd 78 45 1e 3d 29 0a 89 3d 73 99 44 3d
       -0.1105088 0.03864047 0.06691391 0.047997903
0002a0 4e 4a 94 bd de dc ea bd 1c b9 f0 bd 0a 8a ac bd
       -0.07240735 -0.11467908 -0.11754057 -0.08424766
0002b0 9e 58 c8 3d 8f 04 d9 3d 14 55 b6 3e 5a b8 d5 3c
       0.097825274 0.105965726 0.35611784 0.026088882
0002c0 b2 ea 34 bd a1 bb 2f 3e 82 59 1c 3c 22 5e fc 3d
       -0.044169135 0.17161418 0.009542825 0.12322642
0002d0 83 82 14 3d 62 74 cb 3e 79 ba 97 3e e4 a4 c3 be
       0.03625728 0.3973723 0.29634455 -0.3821174
0002e0 35 c7 00 3e 43 94 16 3e 2c 5b 37 bd 0a 3a e3 3d
       0.12575991 0.14704995 -0.044764683 0.110950544
0002f0 62 ea d5 bd ef 94 9d 3d 1c 90 0e 3b 58 f6 91 3d
       -0.104450956 0.076944225 0.0021753376 0.071270645
000300 be 98 26 be 7a d2 65 3e d3 15 12 be 7f c3 90 3c
       -0.16269204 0.22443572 -0.14266138 0.017671345
000310 c4 9b 9e bd 43 a1 3e bd 1e fa ca bd 5e b9 6f be
       -0.07744554 -0.04654051 -0.09910987 -0.23410556
000320 6a 9b 44 3e 44 e8 55 bd 6d 38 2e 3d 50 f3 37 3e
       0.19199911 -0.05222346 0.04253428 0.1796391
000330 af 8b 17 3e 53 16 d8 3e 72 67 d6 bd 16 6e 1f be
       0.14799379 0.42204532 -0.104689494 -0.15569338
000340 d2 5c 1d be a6 28 29 be a7 f0 9d bd 29 5a 1f 3d
       -0.1536744 -0.16519412 -0.077119164 0.038904343
000350 f6 4c 5d bc b0 b8 df 3c 7a 01 1c 3e 80 a2 a4 3d
       -0.013507118 0.027309746 0.15234938 0.08038807
000360 04 b0 9b 3e b4 54 8e bd c3 e3 83 be 93 8e 2f 3e
       0.30407727 -0.069497496 -0.25759706 0.17144231
000370 a6 af 1c be 4c 46 d2 3b f0 a7 52 3e d0 8d 0b 3e
       -0.1530138 0.0064170714 0.20571876 0.13628316
000380 24 a6 03 3c 9e 8e aa 3d 56 1d bb 3c 83 93 57 3e
       0.0080352165 0.08327983 0.022841137 0.21052365
000390 16 e7 83 3e c2 c2 04 3d a6 a1 03 3e e8 6d d6 3e
       0.25762242 0.032412298 0.12854633 0.41880727
0003a0 9a 28 27 3e 28 cd e9 3d 6a 45 58 3d 32 a5 6c bd
       0.16324082 0.114160836 0.052800573 -0.05777473
0003b0 a1 33 5f bd 59 07 87 be 3a e5 b7 3d df ab c1 bd
       -0.054492597 -0.26372793 0.08979268 -0.0945661
0003c0 6e fb 0c be 59 01 c8 bd f3 3f dc bd e4 62 8f 3d
       -0.13767788 -0.09765882 -0.10754385 0.07001284
0003d0 20 e5 1a bc 85 c5 94 3e c0 35 57 be 62 ad 25 be
       -0.009454042 0.29056945 -0.21016598 -0.16179422
0003e0 a6 37 1d be a5 c2 c3 3c 80 32 8f 3d 00 e6 5d be
       -0.1535326 0.023896525 0.06992054 -0.2166977
0003f0 c4 f9 59 bd 77 b2 f8 3d a6 e8 92 bd cb 1e 94 bd
       -0.05321671 0.121434145 -0.071732804 -0.07232436

while/MatMul f4 [40, 4]
000000 81 77 0b bd 6d e4 ae 3c a3 d2 7f 3f c6 c1 91 3e
       -0.034049515 0.021349156 0.9993078 0.2846815
000010 96 97 68 be 03 07 ec 3e 98 3f 17 be b3 f8 5f bc
       -0.22714075 0.460991 -0.14770353 -0.013670134
000020 70 e0 5d 3e d9 ba 16 be 74 36 15 bc 2e f5 17 3d
       0.21667647 -0.14719714 -0.009107221 0.037099056
000030 87 c6 4b 3c ea 76 8d 3e 09 40 64 be 17 6e 80 3e
       0.012437469 0.27629787 -0.22290052 0.25083992
000040 33 22 5e be 30 f4 12 3e a2 9f ad bc 17 78 ef bc
       -0.21692733 0.14350963 -0.021194283 -0.029232068
000050 9e 11 34 3f 9e 6b ae 3e 36 79 04 be 0b 24 ed 3e
       0.7033938 0.3406648 -0.12936863 0.4631656
000060 80 5e 52 3e 9f 3c 8a be b7 e0 a9 3f ff d6 e1 3d
       0.20543861 -0.26999375 1.3271703 0.110273354
000070 db bc 43 bc 92 d1 12 3e 63 0f b6 3c 76 b5 d3 3b
       -0.011946882 0.14337757 0.022224134 0.006460841
000080 ae 49 1a 3d 60 6d 38 3e 1b 35 0f c0 28 ac 2e be
       0.037667923 0.18010473 -2.2376163 -0.1705786
000090 76 32 a1 3e fc f3 77 be 27 a2 f7 3f ba 5e 7d bc
       0.3148381 -0.24214166 1.934636 -0.015464479
0000a0 80 61 d8 3b 7b d8 a7 3e d8 36 ae bd 6c 1c d6 bd
       0.00660342 0.3278235 -0.08506554 -0.1045464
0000b0 68 ab 72 bd cc 54 ba be 84 1a 45 be 78 f5 4f be
       -0.059245497 -0.3639282 -0.19248396 -0.20308483
0000c0 be 24 0b 3e c0 6d c6 bc e2 e2 94 be ec a9 a4 3d
       0.13588235 -0.024222255 -0.29079348 0.080402225
0000d0 3b 92 75 be b0 0e de bc de 28 b7 be ec 78 ec bd
       -0.23981564 -0.027106613 -0.35773367 -0.115465015
0000e0 c9 c8 a9 3e 35 a7 82 3e fa 26 24 3e 03 c4 94 3e
       0.33161 0.25518194 0.16030493 0.29055795
0000f0 42 ed 69 3e 0e 26 74 3e 00 24 c5 39 9d c7 97 be
       0.22844413 0.23842642 0.0003760159 -0.2964448
000100 00 81 4f 3b 3e dc fa bd 58 8e d6 bd f4 53 86 3d
       0.0031662583 -0.12249039 -0.10476369 0.065589815
000110 84 c8 ce bd fd 99 94 3e c2 c1 36 be 70 7a 87 3d
       -0.10096839 0.29023734 -0.1784735 0.0661515
000120 b6 81 48 3e 24 56 ba bd 0e 3c 6b 3e 6d e6 b1 3e
       0.19580731 -0.09098461 0.22972128 0.34746113
000130 10 df b3 be 2d 62 82 be b6 3c 23 3e 18 16 da bd
       -0.3513112 -0.25465527 0.15941128 -0.10648745
000140 58 44 6c be c1 64 0e 3f 03 ea 1a 3f 43 c4 81 3d
       -0.23072946 0.5562249 0.60513324 0.06336262
000150 0f 02 49 be 72 d2 f7 3e 00 25 ca bd dd 01 00 bd
       -0.19629692 0.48402745 -0.098703384 -0.031251777
000160 3c 23 cf bc 08 07 5e 3d 7c df dc bf e7 e7 41 be
       -0.025285356 0.054205924 -1.7255702 -0.1893612
000170 d6 77 55 be 0e 3c c1 3e 88 52 20 bb ac 30 61 be
       -0.20846495 0.3774113 -0.0024463255 -0.21991223
000180 8c ce b4 3e a2 04 9a be c0 7f 73 3e 9e 3a 73 3d
       0.35313833 -0.3008166 0.23779202 0.059382074
000190 a0 87 3b 3d 99 f9 9c 3e c9 7b 81 3d f5 0c 28 3f
       0.04578364 0.30659178 0.06322438 0.6564477
0001a0 e0 4a aa 3d bc e8 47 3c 1c 92 87 3c 0d ea 70 bc
       0.083150625 0.012201484 0.016549163 -0.01470424
0001b0 2b f2 61 bd f1 93 f0 bc d4 a6 a6 ba 85 1e 8c bc
       -0.05516259 -0.029367419 -0.0012714514 -0.017104397
0001c0 02 47 4a 3d 09 24 15 be 10 e9 da 3e c0 b6 c1 bd
       0.049384125 -0.14564528 0.42755938 -0.09458685
0001d0 13 5a 86 3e 5c e5 27 3e 88 e6 42 be f8 22 b6 3e
       0.26240596 0.16396087 -0.19033253 0.35573554
0001e0 c4 10 50 bd c6 95 9c 3e d5 e9 0c bd dc 37 09 bd
       -0.05079724 0.30583018 -0.034402687 -0.033500537
0001f0 ee 3f 92 3d 14 4e 1e 3c 1e 63 03 3e cf fb 54 3d
       0.071411 0.00966217 0.12830779 0.051997956
000200 33 2e 53 bc c0 a5 27 bd 67 9b 56 3f 6a b6 9f 3e
       -0.012889433 -0.040929556 0.83830875 0.31193858
000210 cf e3 f9 bd 99 38 0a 3f 18 14 b7 3d 59 a8 8b 3e
       -0.12201654 0.5399261 0.089393795 0.27276877
000220 de b1 92 be eb 61 21 3f 45 ff b1 3e b7 7d d5 3d
       -0.28651327 0.63040036 0.34765068 0.10424369
000230 06 d8 ec bd 7f 4c fa 3e 51 30 0c 3c fd ee f9 bd
       -0.11564641 0.48886487 0.008556441 -0.122037865
000240 58 21 e3 bd a7 c0 ae 3e 60 d4 39 3d 01 78 07 be
       -0.11090344 0.34131357 0.045368552 -0.13229372
000250 7c 17 70 bd da 40 5a 3e bf 96 0b 3d a6 ba 2a 3a
       -0.058616146 0.21313801 0.03407931 0.0006512798
000260 4c 02 09 3e 7a fb 98 3d bc cf c1 bf d5 52 bf bd
       0.13379782 0.0746984 -1.514152 -0.09341971
000270 b4 b6 37 3e 66 b0 80 bd 52 b4 8a bc 32 09 25 3c
       0.1794079 -0.06283645 -0.016931687 0.010072993

sequential/lstm_1/Read_2/ReadVariableOp1 f4 [40]
000000 4d e9 e9 3e af 5c db 3e c6 d9 de 3d be 9c 56 3e
       0.45685807 0.4284415 0.10881381 0.2095823
000010 a1 a0 bd bd 8e 23 96 3e b2 35 b7 3e 1c b7 df 3e
       -0.09259153 0.29324 0.35783154 0.4369439
000020 14 5b bd 3e 67 7b 8b bc 00 00 80 3f 00 00 80 3f
       0.3698355 -0.017026616 1.0 1.0
000030 00 00 80 3f 00 00 80 3f 00 00 80 3f 00 00 80 3f
       1.0 1.0 1.0 1.0
000040 00 00 80 3f 00 00 80 3f 00 00 80 3f 00 00 80 3f
       1.0 1.0 1.0 1.0
000050 92 3c 09 bf 12 16 c2 be 54 0b 9b 3d 16 c9 16 3e
       -0.5360805 -0.37907463 0.0757052 0.14725146
000060 fb e6 83 bd d2 61 3a 3e b9 c1 95 be 79 cb f9 be
       -0.064405404 0.18201378 -0.2924936 -0.4878805
000070 dd 8b c2 be e8 08 14 3d 14 0f f4 3e f0 47 e1 3e
       -0.37997332 0.036141306 0.47667754 0.44000196
000080 4b 33 cc 3e b5 df 66 3e 1b 97 83 3d 4e 07 9c 3e
       0.39882883 0.22546275 0.064253055 0.30474323
000090 44 11 c7 3e e7 e7 f5 3e 11 bb ba 3e 77 e6 13 3e
       0.3888036 0.4802849 0.36470845 0.14443384

while/MatMul_12 f4 [40, 10]
000000 28 f1 08 3e 0c 03 01 be 87 e5 13 3e cc 74 e8 3d
       0.13373244 -0.12598819 0.14443026 0.11350402
000010 02 b9 3c be 5b 0f a8 bd d0 99 51 be e8 1a f8 3d
       -0.1842995 -0.08206054 -0.20468831 0.12114507
000020 d0 bd a5 3e 68 f9 3b be b4 0b 1f 3e 08 0c a3 3d
       0.32371378 -0.1835686 0.15531808 0.07961279
000030 00 07 22 3e 28 0b a4 bc 44 b5 f5 3d 92 26 ef bd
       0.15822983 -0.020024851 0.11997464 -0.116772786
000040 98 11 b4 be f1 f7 0f 3e c6 e2 89 3c 45 15 c1 bd
       -0.35169673 0.14059426 0.016831767 -0.09427885
000050 b8 d8 31 3c 73 f7 42 3d b9 64 a5 bd 71 df bd 3e
       0.010854892 0.047599267 -0.08075852 0.37084535
000060 9c 4c ba bb 7b 5a 22 3e f9 0f 8a bd 35 a9 30 bd
       -0.005685402 0.15854828 -0.06741328 -0.04313012
000070 42 20 f1 bd 6a 93 3d bd cc 52 3d 3e 17 92 a4 bd
       -0.11773731 -0.046283163 0.18488616 -0.08035677
000080 8d d7 02 be 2f a4 7f bd 82 ee 31 be 95 98 95 bd
       -0.12777539 -0.062412437 -0.1737614 -0.07304493
000090 4a 12 1f 3e 8f 97 20 3e a1 6c 00 3e 82 cb ca 3d
       0.1553432 0.15682815 0.12541439 0.09902097
0000a0 ae 73 85 3d be 38 85 bd 9f d3 04 be 5f 93 00 be
       0.06516205 -0.06504963 -0.12971352 -0.12556218
0000b0 b8 43 a5 ba 30 73 0e be 66 19 db bd 8c 71 16 be
       -0.0012608683 -0.13911128 -0.10698204 -0.14691752
0000c0 64 82 56 3e f9 31 da 3d 67 aa 2d bc 48 50 1c 3e
       0.20948178 0.10654063 -0.010599709 0.15265
0000d0 bc f9 9f 3e d2 e1 01 be 90 d6 e1 bc 56 55 b9 3d
       0.3124522 -0.126838 -0.027568132 0.0904948
0000e0 c0 90 b5 3d f7 23 9c 3d 57 ae 11 bd 08 ef 81 3e
       0.088654995 0.07624047 -0.035566654 0.2537768
0000f0 bb 6b 5b 3c da 32 0b 3e 26 19 80 3e 39 04 6a 3e
       0.013392384 0.13593617 0.25019187 0.22853173
000100 70 26 7d bd c8 12 87 bd 4a 11 06 be 6a 13 4b 3e
       -0.061804235 -0.06595379 -0.13092533 0.19831625
000110 62 4f 1f be c6 c3 35 3d 8f 76 a2 3e 54 2e b0 bd
       -0.15557626 0.044376157 0.31731078 -0.086025864
000120 20 4a cb bd ce 1c 81 bc bc 72 a0 bd dd ca 33 3e
       -0.099262476 -0.015760805 -0.07834384 0.17557855
000130 17 ca 0e be f5 82 35 bd d2 c8 7f 3d 44 e3 3c 3d
       -0.13944279 -0.044314343 0.062447377 0.046115175
000140 d9 69 98 be 3d 45 03 3e ab 17 9a be ee c0 ab bd
       -0.29768255 0.12819381 -0.30096182 -0.08386408
000150 9b 40 8b 3d 9b ba 8c be 78 9a 94 bc b0 ba ca 3e
       0.06799432 -0.2748612 -0.018140063 0.39595556
000160 14 54 ac bc 0c 14 7e 3d 74 2a b9 bc 87 5b c1 be
       -0.021036185 0.062030837 -0.022603251 -0.37765142
000170 b2 19 32 bd 3e 92 94 3e 3d a7 dd bd 42 9c 8b be
       -0.043481536 0.29017824 -0.10822914 -0.27267653
000180 d6 1d 0a bd 4b 4a a4 be fc c7 13 be d3 e1 ab 3e
       -0.03371986 -0.3208793 -0.14431757 0.33570728
000190 7d 48 21 be 42 8a 60 be 42 c2 0e be b2 d3 d0 3d
       -0.15750308 -0.21927741 -0.13941291 0.10196628
0001a0 2f 1c 3c 3e 6c 22 d6 3d 5d b0 a4 bd ac 87 2a 3d
       0.18370126 0.10455784 -0.08041451 0.041633293
0001b0 c5 2c 21 3e 00 27 6f bb 64 ab a2 bd 56 ec 83 be
       0.15739734 -0.0036491752 -0.079428464 -0.25766248
0001c0 90 3e cb 3d e8 10 c4 bb 25 f1 02 3f 6e 6f 67 be
       0.09924042 -0.0059834607 0.5114921 -0.22601101
0001d0 c4 58 6f 3d 54 8a 60 bd d8 68 40 3d 23 22 7c bd
       0.058434263 -0.05481942 0.046974987 -0.061555993
0001e0 cd 37 89 be dc c8 8b be 86 e0 f1 3d 68 4b 38 bd
       -0.26800385 -0.2730168 0.118104026 -0.044993788
0001f0 64 48 42 3c 33 2e f8 3d 19 83 28 bd 41 04 26 3e
       0.01185808 0.12118187 -0.04114065 0.1621256
000200 7f cc 04 be a7 f9 ea 3d 85 b9 5e 3d a1 b5 d6 3c
       -0.12968634 0.11473399 0.054376144 0.026209654
000210 e2 57 b3 3d ae f7 71 be ba 61 62 bd 67 9b ce bd
       0.08756997 -0.23629639 -0.05526898 -0.100882344
000220 08 f3 43 3e b8 eb 43 be c0 f2 39 bd 2a 83 cc bc
       0.19135678 -0.19132888 -0.04539752 -0.024964888
000230 b8 49 f5 bd 89 3d 24 3e ff 1f 02 bd 0e 2e 89 3d
       -0.11976951 0.16039099 -0.031768795 0.06698237
000240 ee 0f 46 3d 05 c0 23 be e6 b8 74 3e ba 84 41 bd
       0.048355035 -0.15991218 0.23898658 -0.04724572
000250 a0 4a e4 3a 24 57 17 be 30 57 cd bd 23 bd 05 be
       0.001741726 -0.14779335 -0.10026395 -0.13060431
000260 0f e0 30 be b0 5e 41 3e 21 8b aa 3d f5 08 4a 3e
       -0.17272972 0.18883777 0.08327318 0.1972998
000270 e1 25 a1 bd 80 4a de bd 68 22 0c 3e 63 ab f8 bc
       -0.07868553 -0.108540535 0.13685 -0.030355161
000280 b0 2b e9 bd 97 10 72 bd 0f 89 d6 3d f4 d0 12 be
       -0.11385286 -0.059097853 0.104753606 -0.14337522
000290 ce 33 3c 3e a6 37 6e be 38 65 91 bd 31 c9 4a 3e
       0.18379137 -0.23263416 -0.07099384 0.19803311
0002a0 cc b0 17 3e c7 c7 70 3d da c5 26 be 24 e2 64 bd
       0.14813536 0.058784273 -0.16286412 -0.055879727
0002b0 5c eb 37 be 73 f3 ca bd 90 ec 3d bd ff 6a e9 3c
       -0.17960876 -0.099097155 -0.04636818 0.028493403
0002c0 f2 ea 53 be 80 db 2c be e1 5e 3c be 32 08 93 bd
       -0.20695093 -0.16880608 -0.18395568 -0.071792975
0002d0 d2 75 2b be 31 7a 84 bc a9 5a 04 bc b0 8a 89 bd
       -0.16744164 -0.016171547 -0.008078256 -0.06715906
0002e0 9b e2 70 be bd a0 1e be 11 92 84 3d 44 7a 23 be
       -0.23523943 -0.15491004 0.064731725 -0.1596461
0002f0 9d 82 3e 3e 74 b5 c0 3b 67 40 06 3e f6 60 74 bd
       0.18604513 0.005881006 0.13110505 -0.05966278
000300 73 82 cb 3d 4e 2e 6c be 12 2b 85 3d 0d 7f 2a bd
       0.099369906 -0.23064539 0.06502356 -0.04162507
000310 f0 a9 d6 3d 14 16 64 be 1e 82 84 be 44 70 96 bc
       0.10481632 -0.22274047 -0.25880522 -0.01836408
000320 60 b0 51 be 3a c9 32 3d 1f c2 f4 3d a8 14 a6 3e
       -0.20477438 0.043648936 0.11951088 0.32437634
000330 d0 ef 98 bb 6b 4f 1c be 48 ba 08 3e 50 a8 6f bc
       -0.0046672598 -0.1526467 0.1335231 -0.014627531
000340 27 08 4c 3e ec 03 b1 3d a2 63 b0 bc 88 96 19 3e
       0.19924985 0.08643326 -0.021531884 0.1499883
000350 11 4c 32 3e 52 3a 9d bd a8 23 fc 3d 45 2a 8a 3e
       0.1741183 -0.07677139 0.123114884 0.26985374
000360 98 6e 1f be 01 5c 81 bc 3d 4d 83 3c 14 5e dc 3e
       -0.15569532 -0.015790941 0.016028041 0.43040526
000370 c3 c1 36 3e fa 19 58 3e c1 d3 a1 3d 0e 9e a8 bd
       0.17847352 0.2110366 0.07901717 -0.082332715
000380 f6 85 e4 3d 8d 8d 80 be 66 cd 0f 3e f3 2a 8e 3c
       0.111583635 -0.25107995 0.14043197 0.017354464
000390 1a 2b f0 bc 30 5e 01 3e 7d 3f af 3b 07 8a 5c 3e
       -0.029317427 0.12633586 0.0053481446 0.21537028
0003a0 78 a2 5d bd 76 2f be 3e 97 64 c5 ba ee 97 b9 3b
       -0.05411002 0.37145585 -0.0015059885 0.0056638634
0003b0 65 13 72 3e 66 ff 97 3e 6b 70 af 3d 57 01 17 3e
       0.23640211 0.2968704 0.08566364 0.14746605
0003c0 d4 3f 68 3d ad 12 86 3e cf 2d 7b be 92 e6 0e 3d
       0.056701496 0.26186123 -0.24529193 0.034887858
0003d0 e8 c3 f9 3d d7 f6 86 3e 36 82 07 3e c8 9a 17 be
       0.12195569 0.263602 0.13233265 -0.14805138
0003e0 65 0e 21 bd 50 38 d6 3d 4b be bb 3d 17 04 23 3d
       -0.03932037 0.104599595 0.09167155 0.039798822
0003f0 f3 8b 5e bc c2 a2 1e be 17 9d 66 3e 4e 19 f6 3d
       -0.013583171 -0.15491775 0.22520863 0.12016545

while/MatMul2 f4 [40, 10]
000000 76 42 27 3f 94 9e d1 3e 9c 59 a7 be b5 5e c8 3b
       0.65335786 0.40941298 -0.32685554 0.0061148056
000010 8a 11 31 bf 8d aa 34 3f 67 ac ef 3d e9 fc 82 be
       -0.6916739 0.7057274 0.11702805 -0.2558358
000020 83 a8 43 3d df 01 02 3f e2 dd 17 3f 0d b1 ce 3e
       0.047768127 0.50784105 0.5932294 0.40369454
000030 dc 72 f2 bd 09 f4 57 3d 45 4a cb be 78 c9 04 3e
       -0.11838314 0.052722964 -0.397051 0.12967479
000040 b3 5b d2 3c a0 a8 19 bf 06 0c f3 be 39 8b d0 3e
       0.025678491 -0.60022926 -0.4747011 0.40731218
000050 0f 6e e3 3e b3 d8 74 bd fc 15 86 be c7 02 34 3f
       0.44419906 -0.059776973 -0.26188648 0.7031674
000060 c8 61 0b c0 5d 14 c5 3e be 38 f8 3e 4a 35 5c be
       -2.177843 0.38492098 0.4848079 -0.21504703
000070 8a bf 79 bf ac a7 c1 3e 93 c9 3a 3e d9 b2 df 3e
       -0.9755789 0.37823236 0.18240957 0.43691137
000080 17 e9 e4 be 2d 37 01 3f dd d2 c4 bf fd c5 e8 3e
       -0.44709083 0.50474817 -1.537685 0.45463553
000090 a7 ce 14 3f c1 05 2e bf 38 8e 28 bd 2e c7 05 3e
       0.58127826 -0.6797753 -0.041151255 0.13064262
0000a0 cd 67 e0 3e 84 69 9c 3f 9a 86 81 be 95 75 57 3f
       0.43829194 1.2219701 -0.25298005 0.8416379
0000b0 65 b2 22 c0 be b0 22 3e 59 1b 89 3f 14 1b dc bf
       -2.5421383 0.15887734 1.0711471 -1.7195764
0000c0 cb 8b 71 bf ee a2 95 3e ae 6d 1b 3f b4 ea 30 3e
       -0.9435393 0.29225868 0.6071423 0.17277032
0000d0 90 48 b4 be 30 fa af 3e 75 df 66 bf 07 91 fb 3e
       -0.3521161 0.34370565 -0.9018472 0.49134085
0000e0 d4 c7 ee 3d 2c ac 04 be 83 b3 28 bf 9d 96 be 3e
       0.11659208 -0.12956303 -0.65898913 0.37224284
0000f0 af 23 a5 3e d1 11 aa 3e 66 2e 96 bd a7 57 2a 3f
       0.32253787 0.33216718 -0.073330685 0.66539997
000100 23 67 98 bf da 8d a8 3e 1b c4 12 3f d9 66 27 be
       -1.1906475 0.32920724 0.57330483 -0.16347827
000110 68 7f cc be 25 da 0e 3f c5 87 74 3e 71 46 ac 3e
       -0.39940953 0.5580161 0.23879917 0.33647493
000120 a0 49 95 be c3 ce be 3e e1 50 8d bf f3 49 9e 3e
       -0.29157734 0.37267122 -1.1040307 0.30915794
000130 81 77 b0 3e 6d 23 21 bf 04 58 4b 3e 2b e1 3c 3f
       0.34466174 -0.6294468 0.19857794 0.7378108
000140 cd 28 50 3f 65 d7 a3 3e 00 8f d1 bd c5 c8 17 3f
       0.8131226 0.3200027 -0.10232353 0.59290725
000150 14 eb 3b bf 99 8c 5a 3e 98 9e 2a 3e 3e c8 0e bf
       -0.73405576 0.21342696 0.16662061 -0.55774295
000160 f5 a1 80 be 8d 70 2c 3e b1 88 ac 3e f2 03 5a 3f
       -0.25123563 0.1683981 0.33698037 0.8516227
000170 88 ea 91 bd 3d 65 07 3f c3 c6 10 c0 77 7f 12 3e
       -0.071248114 0.5288885 -2.2621315 0.14306436
000180 54 5e ea 3e 8b 58 68 bf c6 1e 91 bf 16 11 91 3e
       0.45775092 -0.90760106 -1.1337516 0.28333348
000190 38 12 2b 3e a8 d2 a5 bd 05 b6 a3 be 54 2a 3b 3e
       0.16706169 -0.0809682 -0.31974807 0.18277866
0001a0 92 cb dd bd 30 54 a0 3d 92 89 8a 3e 80 c6 b9 3c
       -0.108298436 0.078285575 0.27058083 0.02267766
0001b0 24 1f 0b 3e 61 28 83 be 70 a6 9d be 1e fb 8d be
       0.13586098 -0.25616744 -0.30791044 -0.2773065
0001c0 17 57 9d be 40 f3 23 3e 4c 2a f1 3d b0 0a 77 3e
       -0.30730507 0.16010761 0.117756456 0.2412517
0001d0 dc 64 83 bd 8c 25 82 3e 50 de 3a be 62 42 d2 bd
       -0.06415722 0.2541927 -0.18248868 -0.10266568
0001e0 4a 52 aa be 80 9d 2f be 30 91 d2 bd 6c b8 86 3e
       -0.33265907 -0.17149925 -0.102815986 0.26312578
0001f0 cb db 1f be c0 3f 10 3d 14 7a 99 3e 30 4d 5f 3e
       -0.15611188 0.035217047 0.2997595 0.21806788
000200 c0 64 c8 bc d0 a1 9d bc 6f 8f 00 be 59 db 0c be
       -0.024462104 -0.019242197 -0.12554716 -0.1375555
000210 14 49 d8 3d 6c bb 2f be c4 52 cb bd c6 d1 9e 3e
       0.105608135 -0.1716134 -0.09927896 0.3101942
000220 50 50 94 bc 1c e2 7c 3e c2 92 7b be 44 8b fa bd
       -0.018104702 0.24695629 -0.24567702 -0.12233594
000230 a0 28 83 3d 0a 6d dd bd 20 4d e4 bc f4 58 0b 3e
       0.06404233 -0.10811813 -0.027868807 0.13608152
000240 6c 7f 8e 3d 68 5d 00 3d c4 22 7a 3e 38 77 00 bd
       0.069578975 0.03133908 0.24427325 -0.031363696
000250 02 1d 9c 3e 98 6c c3 bd 42 33 1a 3e fc 22 a7 bd
       0.3049088 -0.09542197 0.15058616 -0.081609696
000260 00 3e b1 3e 08 5d f8 3d b0 2a 99 bc 93 ef 3f be
       0.34617615 0.12127119 -0.018697113 -0.18743734
000270 b4 d2 3d 3e 62 6d 0d 3e 3c 48 56 3e f2 44 9d 3e
       0.18537408 0.13811257 0.20925993 0.30716664
000280 fe 46 92 3e 90 c7 e1 3c e0 fd fa bc 04 22 f5 bd
       0.28569788 0.02756098 -0.030638635 -0.119693786
000290 be 0a 41 be 94 51 9d 3e a0 07 15 bd 3c c4 94 3e
       -0.18851754 0.30726302 -0.036384225 0.29055965
0002a0 38 ba 8d 3d e4 dc 83 bd cc da d2 bd b6 0d c8 bd
       0.06920284 -0.06438616 -0.102956384 -0.0976824
0002b0 34 7e 49 be ac 67 24 3e 10 29 a5 3c ec 0a 83 3d
       -0.19677049 0.16055173 0.020161182 0.063985676
0002c0 80 1d d3 3c 12 ac 64 be ac 2d 7b 3e d0 d5 a9 3d
       0.025770903 -0.22331265 0.24529141 0.082927346
0002d0 74 e8 fa bd f2 b4 7a be b4 32 87 3d 02 c5 97 be
       -0.12251368 -0.24483088 0.06601468 -0.29642493
0002e0 81 16 30 be 74 8c b8 bd ec ed 9a 3d 64 37 a8 3e
       -0.17196085 -0.09011164 0.07564911 0.3285476
0002f0 7c 05 13 3e 00 a7 8a bd f8 ae 13 3e d0 03 12 3d
       0.14357561 -0.06770134 0.14422214 0.035648167
000300 f8 c9 68 3d 38 34 f2 3d 06 d5 82 be 88 29 1e 3d
       0.056833237 0.11826366 -0.2555315 0.038613826
000310 4d c0 8a be b4 fc 4d 3e 5d d5 a9 be 8e 10 f9 bd
       -0.2709984 0.2011593 -0.33170596 -0.12161361
000320 7b 22 ba be 8f ad a8 be 75 ab 2c 3f 1a a9 1e 3c
       -0.36354432 -0.32944915 0.6744912 0.009683872
000330 7d e2 8d 3e bf 5a c3 bc ee e6 95 3d 0d 94 55 3d
       0.2771186 -0.023846982 0.07319437 0.052143145
000340 e1 4a 77 be 57 23 28 bf 30 c5 0b bf b7 4f 35 bd
       -0.24149658 -0.65678924 -0.5459776 -0.044265475
000350 da d6 14 3f 21 6f 75 3d cd 74 25 3f 1f f7 f5 be
       0.5814034 0.059920434 0.6463135 -0.480401
000360 b1 27 a7 3e db 3f 9e 3e 9c 4d 86 be de 50 13 bf
       0.3264747 0.30908093 -0.26231086 -0.5754527
000370 a6 91 4f 3e c3 90 86 bd 45 03 d8 bd 67 fe 84 3e
       0.20270404 -0.0657058 -0.105474986 0.25975344
000380 05 42 dd bf 36 af 7c 3e 8b 77 87 3e f5 b9 d8 bd
       -1.7285773 0.24676213 0.26458392 -0.105823435
000390 bc 63 1d be a0 09 9b 3e e5 20 d6 3e fb 5f c1 3d
       -0.15370077 0.3028078 0.41821972 0.09442135
0003a0 53 9c b0 be 6a 2b bf 3e 4b bc c7 bf fb b7 63 be
       -0.34494266 0.3733781 -1.5604337 -0.22238152
0003b0 65 af b4 3d c2 c3 c3 bd 12 08 2c 3e e1 c4 ce 3e
       0.08822516 -0.09558822 0.16799954 0.40384582
0003c0 08 b7 f0 bc a9 0e 9a 3e e6 6c 08 be a0 3c 35 3f
       -0.029384151 0.3008931 -0.13322791 0.7079563
0003d0 37 e7 16 c0 cb 10 fb 3c cb 20 b2 3e 41 52 38 bf
       -2.3578622 0.030647656 0.34790644 -0.7200051
0003e0 c3 70 10 bd da 5f ba 3e 35 24 05 3f d8 45 44 3e
       -0.035263788 0.36401254 0.5200837 0.19167268
0003f0 55 c0 0a be f1 1b 89 3e 4f cb 88 bf b0 ae c9 3e
       -0.13549931 0.2677913 -1.0687045 0.39391088
